…
2021-06-16 19:27:32.807165: I tensorflow/compiler/mlir/tensorflow/utils/dump_mlir_util.cc:210] disabling MLIR crash reproducer, set env var `MLIR_CRASH_REPRODUCER_DIRECTORY` to enable.
fully_quantize: 0, inference_type: 6, input_inference_type: 3, output_inference_type: 3
WARNING:absl:For model inputs containing unsupported operations which cannot be quantized, the `inference_input_type` attribute will default to the original type.


Model: "sequential"
_________________________________________________________________
Layer (type)                 Output Shape              Param #   
=================================================================
dense (Dense)                (None, 7)                 70        
_________________________________________________________________
dropout (Dropout)            (None, 7)                 0         
_________________________________________________________________
dense_1 (Dense)              (None, 5)                 40        
_________________________________________________________________
dropout_1 (Dropout)          (None, 5)                 0         
_________________________________________________________________
dense_2 (Dense)              (None, 3)                 18        
_________________________________________________________________
dropout_2 (Dropout)          (None, 3)                 0         
_________________________________________________________________
dense_3 (Dense)              (None, 1)                 4         
=================================================================
Total params: 132
Trainable params: 132
Non-trainable params: 0
_________________________________________________________________

  =============================================
   MLP - Model Configuration
  =============================================
  Data size: (3348, 9)

  Training set file: ../Encoded_060421_NF20210609_train_noisyFitP1P2P3-30uniform0.005_postFitRand_cust6_fullDataSet-p11.txt
…
