BP3_Encoded_20210604_NF20210608/ML/planar_3-fit/p10/1

Model: "sequential"
_________________________________________________________________
Layer (type)                 Output Shape              Param #   
=================================================================
dense (Dense)                (None, 7)                 70        
_________________________________________________________________
dropout (Dropout)            (None, 7)                 0         
_________________________________________________________________
dense_1 (Dense)              (None, 5)                 40        
_________________________________________________________________
dropout_1 (Dropout)          (None, 5)                 0         
_________________________________________________________________
dense_2 (Dense)              (None, 3)                 18        
_________________________________________________________________
dropout_2 (Dropout)          (None, 3)                 0         
_________________________________________________________________
dense_3 (Dense)              (None, 1)                 4         
=================================================================
Total params: 132
Trainable params: 132
Non-trainable params: 0
_________________________________________________________________

  =============================================
   MLP - Model Configuration
  =============================================
  Data size: (3410, 9)

  Training set file: ../Encoded_060421_NF20210608_train_noisyFitP1P2P3-10_noisyFitP1P3P2-10_noisyFitP2P3P1-10cust6_fullDataSet-p10.txt
…
